graduation_project/model/point_history_classifier/point_history_classifier.tflite (tflite, 6432 bytes, 6 tensors)

sequential/dense/BiasAdd/ReadVariableOp f4 [24]
00000000: 4937 51bd 6fa8 d3bc 178f c6bd 9034 16bc
00000010: 136a 69bd 0f8f 283e 753d cdbd 5ab6 b0bc
00000020: 9b6f 233e ed96 36bd 2015 4bbe 10ad 09be
00000030: cc56 b4bd 33b3 50bd 46de 15bd 884d 8abd
00000040: 8934 91bc eff9 6cbd a449 09be ab94 3dbd
00000050: dfeb 3dbe ade1 b3bd 3cd8 18be b174 e2bd
-0.051078115 -0.025837151 -0.09695261 -0.009167805 -0.056985926 0.16460823 -0.100214876 -0.021571327
0.15960543 -0.044577528 -0.19832277 -0.13444924 -0.08805618 -0.050952148 -0.03658893 -0.06753069
-0.017725246 -0.057855543 -0.13406998 -0.04628436 -0.18547009 -0.087832786 -0.14926237 -0.11057413

sequential/dense_2/BiasAdd/ReadVariableOp f4 [4]
00000000: 318e 3bbd 5c4e 1b3f f19f 91be 0e66 c1be
-0.0457899 0.6066644 -0.28442338 -0.37773174

sequential/dense_1/BiasAdd/ReadVariableOp f4 [10]
00000000: a6ae 18be a701 083f 8438 41bb a012 323f
00000010: 2418 f23e c212 eb3e e6e6 613f ceeb 393e
00000020: 5622 af3e 4c4f 27be
-0.14910373 0.5312752 -0.0029483149 0.6955967 0.47284043 0.4591275 0.8824295 0.18156359
0.34205884 -0.16338843

sequential/dense/MatMul f4 [24, 32]
00000000: 30a7 df3d 5ed8 88be cb13 c43f 5dca 8ebd
00000010: adf8 c53f 4b56 93be 8e3a a03f 4a4d f5be
00000020: 5208 313f 72c7 27bf 9128 eb3e 072d 27bf
00000030: 9263 3fbe d92d d4be 0de3 09bf 22c7 adbe
00000040: 8bda 1fbf 0c1d 54bb 492c 10bf d0b4 483c
00000050: 1bae 47bf e68f a63d 2314 0fbf e076 f43d
00000060: 4c09 abbe 9e3e 8f3e 3910 353d 3826 413e
00000070: 8da1 993e 85d9 cf3a cfd4 463f 4538 76be
00000080: c86c 92bd f696 43be 8743 e03f 4e32 483f
00000090: e6b4 da3f 331d 6c3e 9d50 e43f a553 293e
000000a0: 284b 973f 4245 99be 81fb 883f 8593 c5bd
000000b0: d6ac 043f 949e 72be f4e7 a83e 3c2e 39be
000000c0: 4eef f33c 495a 7dbe 5927 a1be 7615 0abe
000000d0: c037 a2be ed5d 9abd 17aa e0be b433 14be
000000e0: 7c89 8dbe 53be 2ebe a5cd 3bbe 8187 90be
000000f0: cb2f 593e fffa c5be 8504 363f 6881 35bf
00000100: 90fa cabd 7502 1ebe 1f26 c3bf d5db 32bf
00000110: ba6c 81bf 8078 aebe 11ad 03bf 0db2 dfbd
00000120: 04df 4cbf d7f7 ae3c b15b 21bf 8892 183e
00000130: 46a5 4ebe 88f1 79be b1db 03bf 57dd 83be
00000140: 5dd3 53be ad2d 5abe eb06 04bf 7776 fabe
00000150: c422 36be c8b8 91be b800 02bf b1cd 61be
00000160: 967f 35bf 5980 12bf d3b4 5bbf 0485 32bf
00000170: b3a5 43bf d4d9 97bf 4c33 42bf dfee dbbf
00000180: 2038 3abd f4a3 893d 76b0 73bf f324 e0be
00000190: 5adc afbf e4dc b5bd 2372 95bf 464c cc3e
000001a0: 1499 b2bf 7674 6c3f e2ef bbbf 36ce 693f
000001b0: 1757 6bbf 1837 7c3f a433 40bf b21b 8c3f
000001c0: d258 97bd 3c1e 1d3e 7ff2 1c3d 2689 0abd
000001d0: 4796 213f 77c6 2dbe a359 8e3e da91 56be
000001e0: 2274 1f3f 19c9 acbe 1f47 773e 57b7 dabe
000001f0: 65be 02be a945 9f3d 9600 b2be 8e6f 68bc
00000200: a8bb 54be a908 84be 101c 6fbe 108b ddbf
00000210: 7630 70bd 540a 85bf e195 98bd ca39 6dbf
00000220: 3f67 023d e6a6 81bf 55ad 463e 89a1 09bf
00000230: 5303 aa3e 852f fcbe 789b 973e 4c19 b0be
00000240: be1d 783f 7355 f23b f55e 563f afdc 40bd
00000250: 8a71 273f 3150 e43d b616 433f 42b6 9fbd
00000260: 7d7b c83e c3d0 d93e e257 173f 40ea 2a3f
00000270: c4d3 bc3e bfda 203f 6e0a f13e e0d5 5e3f
00000280: 0e43 4cbe 0429 543e aace 973d 5c2d a1be
00000290: f678 0a3f 1cde 5cbd 8b35 a53f 4432 f1be
000002a0: 1814 a03f b39e 23bf 2374 823f fb1d 66bf
000002b0: 1443 123f 287f 7ebf 37f1 8c3e 1aa6 69bf
000002c0: 04d4 11bd 2e02 1fbf 6edf a3bd 66e7 bdbe
000002d0: 3eaa 76be b8be eb3d 3759 dbbe db5a 253e
000002e0: 3288 39bf f65e db3e f7e8 50bf 601d 313f
000002f0: 5081 66bf ef79 3b3f 176c 58bf 4a75 033f
00000300: b81a 433e 4ed3 a9bd 4a3c 2f3f 61bf 8fbf
00000310: e89a b63d a0ee 8bbf bb2d 2ebe 110f 75bf
00000320: 8fb7 dcbe 56d3 9fbe 67c4 6cbf a1d6 20be
00000330: a80a 0fbf 8c09 463b 32e2 3ebf e034 933e
00000340: 6e35 0abf 2640 b23e ee2e adbe e1fc c33e
00000350: fa11 b3bd 541d fd3e dc0b 523e 7c94 d23e
00000360: 68af 2a3f 6d0a c33e 4986 183f 3314 1a3e
00000370: 0353 7b3e 9df1 7bbe 24af 023e 2045 15bf
00000380: 60eb 05be 92ce aabd d01d 3e3f ebc8 803f
00000390: 3c08 323f ab97 b13f fa7e 203e e33b 8a3f
000003a0: c912 8abe a15f 7b3f 8d8d f3be fe86 113f
000003b0: 6fad 3bbf c30f d63e 4234 59bf 1855 d03e
000003c0: 7b36 6cbf da82 9c3e d647 41bf 1526 033e
000003d0: aa5d 62bf d2c1 cabe edf7 adbe ca6f bcbe
000003e0: c1f4 35be 0210 13bf 390d 673e e7a0 9dbe
000003f0: bd77 dc3e b850 e2be d84c 503f ceb9 afbe
0.1092056 -0.26727575 1.531854 -0.069721915 1.5466515 -0.28776774 1.251787 -0.4791053
0.6915332 -0.65538704 0.45929387 -0.6530308 -0.18690327 -0.4144123 -0.53862077 -0.3394099
-0.62442845 -0.0032365946 -0.56317574 0.01225014 -0.7800004 0.08132915 -0.558901 0.11936736
-0.3340553 0.2797746 0.044204924 0.18862236 0.30006066 0.0015857673 0.7766847 -0.24044903
-0.071496546 -0.19100556 1.7520608 0.7820176 1.7086456 0.23058014 1.7837101 0.16535814
1.1819811 -0.29935652 1.0701753 -0.09647278 0.51826227 -0.23693305 0.32989466 -0.18084043
0.029777195 -0.24741472 -0.31475332 -0.13484749 -0.3168316 -0.07537446 -0.43879768 -0.14472848
-0.27643955 -0.1706479 -0.18340166 -0.2822838 0.21209638 -0.38668057 0.71100646 -0.70900583
-0.09911072 -0.15430625 -1.5246009 -0.6986669 -1.0111306 -0.3407631 -0.51435953 -0.10922632
-0.80027795 0.021358414 -0.63030535 0.14899647 -0.20180234 -0.24408543 -0.515071 -0.25754806
-0.20686097 -0.21306486 -0.51573056 -0.48918507 -0.177867 -0.2846129 -0.50782347 -0.22051121
-0.70897806 -0.57227093 -0.8582279 -0.69734216 -0.7642471 -1.1863351 -0.7585952 -1.7182273
-0.04546368 0.06720725 -0.95191133 -0.4377819 -1.3739121 -0.08880022 -1.1675457 0.39901942
-1.3952966 0.92365205 -1.4682581 0.9133028 -0.91929764 0.98521566 -0.750788 1.0945952
-0.07389988 0.15343565 0.0383172 -0.0338222 0.6311993 -0.1697024 0.27802762 -0.20954075
0.6228658 -0.33747175 0.24148224 -0.42718002 -0.12767942 0.077769585 -0.34766072 -0.014186753
-0.2077471 -0.25787857 -0.23350549 -1.7308064 -0.058639966 -1.0393777 -0.07450462 -0.92666304
0.031836744 -1.0129058 0.19402058 -0.5376211 0.3320566 -0.49255005 0.296108 -0.343943
0.9692038 0.0073954402 0.8373864 -0.04708546 0.6540762 0.11148108 0.7620653 -0.07798435
0.39156714 0.42542085 0.59118474 0.6676369 0.36880314 0.6283378 0.4707827 0.870451
-0.19947454 0.20718771 0.07412465 -0.3147992 0.5409082 -0.053922758 1.2906965 -0.47108662
1.2506132 -0.6391403 1.0191692 -0.89889497 0.57133603 -0.99412775 0.27527782 -0.91269076
-0.035602584 -0.621127 -0.080016 -0.37090605 -0.2408838 0.11510986 -0.42841503 0.1614794
-0.7247344 0.42845887 -0.81605476 0.6918545 -0.90041065 0.7323293 -0.8453993 0.51350844
0.19053161 -0.08292256 0.6845137 -1.1230279 0.08916265 -1.0932198 -0.17009632 -0.95726115
-0.43108794 -0.31215924 -0.92487186 -0.15706874 -0.55875635 0.0030218093 -0.74563897 0.28751278
-0.5398778 0.34814566 -0.33824867 0.3827887 -0.08743663 0.49436438 0.20512336 0.4112891
0.666739 0.38093892 0.595799 0.15046768 0.24543385 -0.24603887 0.12762123 -0.583086
-0.1307807 -0.083401814 0.7426424 1.0061315 0.69543815 1.387441 0.15673438 1.0799526
-0.26967457 0.98192793 -0.47568932 0.56846607 -0.73311514 0.418089 -0.84845364 0.4068992
-0.9227063 0.30568582 -0.7550024 0.12807496 -0.8842417 -0.39600998 -0.33978215 -0.36804038
-0.17769147 -0.574463 0.22563638 -0.3078682 0.43060103 -0.4420221 0.81367254 -0.34321445

sequential/dense_1/MatMul f4 [10, 24]
00000000: 9d04 8b3f 4479 4a3f bd43 ab3e daa6 a7bc
00000010: 1fdf a2be 9a63 b93e c264 a23f a9a2 283d
00000020: 9dca e23e 505e 4c3f 9160 7d3f 2c05 0fbf
00000030: b96e 6c3f 616f ef3d 9003 b5be d222 97bd
00000040: f846 f23e 0d48 673f c276 463f 625a a03d
00000050: 8150 8b3f 42e4 d13e a4db bfbe ab4f 3abe
00000060: cfbe f93e aeb2 40be 7d87 893e 8553 b73e
00000070: cbb2 443f 85df b23e 04e9 18bf 0f5c 3b3f
00000080: 4f05 d83e ade2 af3e e395 a7be fb91 953f
00000090: ba8d 65be b473 5c3d ec1e 773f ad6b 9c3f
000000a0: b94a 4e3f 42ae bbbe 3740 e3be fb4d 593f
000000b0: 53a3 04bf f8f2 df3e 1456 883f 07f9 993f
000000c0: b9f3 e73f ce83 1540 0215 583e 0b41 883e
000000d0: 2c24 553f 465d 423e 24c3 2340 3106 d23e
000000e0: b687 9d3e 6d34 943f a833 0a40 dc80 bd3e
000000f0: b295 c23f 9d41 f63e dff6 633f e3db 2f3f
00000100: 8988 b63e c084 d43f d6fb b53f 4f1c 0c3f
00000110: e506 a33f fe69 cb3f 3ce4 843e 70c9 463e
00000120: df88 61bf 90c2 f4bf 0a35 e3bf ba82 0bbe
00000130: 1029 31c0 e705 023f e7d6 b9bf 5740 21bf
00000140: 4e5d 2b3f d731 c23e ccfb a6bf 892d 73bf
00000150: 916f b2be 1d9b 9abe 5061 74bf 23bc f93c
00000160: e908 63bf 07b4 b5bf ea94 e8be 6246 8bbe
00000170: fc3c ddbc b688 33be 6481 81be 0fd5 84bf
00000180: 45f6 3dc0 0e02 33c0 6eac bbbf 9223 33bf
00000190: d774 efbf d440 8f3e db62 12c0 5c04 2dc0
000001a0: 6418 e13d 22ea 50bf f1c8 17c0 890b ffbf
000001b0: e767 28c0 6c05 24c0 d32e 09c0 614e 12c0
000001c0: 7896 21c0 5910 4cc0 0ca5 1bc0 ff0c e5bf
000001d0: 7684 9bbf 128b 3cc0 f73e edbf 4118 2ec0
000001e0: 994f 03c0 d63b e3bf e97f f9bf 1180 29bf
000001f0: 8bba 07c0 40fd 913e 8cf8 fcbf f8c8 e3bf
00000200: 9c71 e13e 99e2 b2be ae7e 1dc0 7971 13c0
00000210: 0cdc 12c0 b49e 1cc0 3c3c 30c0 3932 0bc0
00000220: adfd e1bf 3f90 2ec0 9a63 a6bf 4b0f 28c0
00000230: 01db 03bf 4bcd 1ec0 a87b d6be 9067 22c0
00000240: 17b6 503f 26db 3ebf 7299 debe 7cf4 c03e
00000250: 19d8 eebe b02d c13c 40c8 f43e 0014 e9be
00000260: d527 0dbd a06a e9bd 7800 8f3e 6346 92bf
00000270: 4acd c93b 777e 49bf d70c 1cbf 202c 58bf
00000280: 7355 ecbe bf74 533f 8c82 c0bd 8be8 81bf
00000290: f3c1 a83d eda2 8cbe adc3 bdbf 4137 59bf
000002a0: 0b1d 4bbb cc62 203f 38d4 b43e 42a4 5abe
000002b0: 8adb 563f 7e2b 263f 28af 90bc 1f43 b3be
000002c0: b978 103f 3db7 fd3e cd4e 493f 61ad 7c3f
000002d0: dff4 c93e bada 9a3e 7c6b 633f efc2 a63d
000002e0: eade e0bd 3bbe 623e 009e 103f f05e b9bd
000002f0: 559d 533f a958 183f c5c8 db3e c200 093f
00000300: 2047 9e3f fb2b 443f 4e5c a93f 810b bb3f
00000310: f073 473f a2e8 ce3c acef 183f c671 f33f
00000320: 49d0 80bd 5a51 923e 8f26 aa3e 6cc8 b13f
00000330: ccaa 863f 23d1 c33f 059c 4b3f 89dd ac3f
00000340: fa17 543f 9634 7b3f 41eb 503f 29d7 da3f
00000350: bf21 3a3f 4342 073f 1cd4 9a3f 2055 aa3f
00000360: 17d0 e63d bfb0 0c3f de26 a4be 52fe 2ec0
00000370: ad4a ab3e af87 3e3f 2eba 453c e6c8 b5bf
00000380: c5de 523f 4159 0b3f 3674 323e 3c12 283e
00000390: c8ac 05bf 557d 09bf f4c5 dd3e ade2 a03e
000003a0: 8ef0 103f bbd4 79be 1377 9cbe dcd7 80bf
000003b0: 05ce 44be 96a2 63be 6838 ef3d aefe 60be
1.0860783 0.79091287 0.33450118 -0.020465303 -0.31810853 0.36208802 1.2686999 0.04117075
0.44295207 0.7983141 0.98975474 -0.55867267 0.9235645 0.11691166 -0.3535428 -0.07379688
0.4731977 0.90344316 0.7752496 0.07829739 1.0883943 0.4099446 -0.3747226 -0.18194453
0.48778388 -0.18818161 0.26861182 0.35805908 0.76835316 0.34936157 -0.59730554 0.73187345
0.4219155 0.34352627 -0.32731542 1.1685175 -0.22417346 0.05382128 0.9653156 1.222036
0.8058277 -0.36656386 -0.4438493 0.84884614 -0.51811713 0.43740058 1.0651269 1.2029122
1.8121253 2.3361697 0.21101764 0.26612124 0.8325832 0.18980893 2.5587854 0.4102035
0.30767602 1.1578499 2.1594028 0.37012374 1.5201933 0.48096934 0.8904857 0.68694896
0.35651043 1.6603012 1.4217479 0.54730695 1.2736479 1.5891721 0.2595538 0.1941278
-0.88099474 -1.9121876 -1.7750561 -0.13624087 -2.7681313 0.50790256 -1.4518708 -0.629888
0.66939247 0.3792865 -1.3045592 -0.94991356 -0.34850743 -0.30196467 -0.9546099 0.030485218
-0.8868547 -1.4195565 -0.45426112 -0.27202135 -0.027006619 -0.1753262 -0.2529403 -1.037752
-2.968156 -2.7970004 -1.4661996 -0.6997615 -1.8707532 0.27979147 -2.2872837 -2.703391
0.1099098 -0.8160726 -2.3716395 -1.9925395 -2.6313417 -2.562831 -2.143483 -2.2860339
-2.524809 -3.1884978 -2.4319487 -1.7894591 -1.2149799 -2.9459882 -1.853484 -2.7202303
-2.0517333 -1.7752635 -1.949216 -0.6621104 -2.1207607 0.28513527 -1.976335 -1.7795706
0.4403199 -0.34938505 -2.460857 -2.3038008 -2.2946806 -2.4471865 -2.7536764 -2.1749403
-1.7655541 -2.727554 -1.2999146 -2.6259334 -0.5150605 -2.48128 -0.41891217 -2.537571
0.8152785 -0.74553144 -0.43476444 0.37686527 -0.46649244 0.023581356 0.4780903 -0.4552307
-0.034461815 -0.1139729 0.27930045 -1.142773 0.0061585056 -0.78708595 -0.6095709 -0.8444233
-0.46158943 0.82600015 -0.093999 -1.0149091 0.08240118 -0.27468053 -1.482534 -0.84849936
-0.0030992653 0.6265075 0.3531816 -0.21351722 0.8392874 0.64910114 -0.017661646 -0.35012147
0.5643421 0.49553862 0.78635865 0.98702055 0.39444634 0.30245 0.88835883 0.081426494
-0.109800175 0.2214288 0.5649109 -0.09051311 0.82661945 0.59510285 0.42926612 0.5351678
1.2365456 0.7662961 1.3231294 1.4612886 0.7791128 0.025257412 0.5974071 1.9019096
-0.06289727 0.2857769 0.33232543 1.3889289 1.0520873 1.5298198 0.7953494 1.3505107
0.82849085 0.98127115 0.8160897 1.7096912 0.7270774 0.5283548 1.2095981 1.3307228
0.11270159 0.54957193 -0.32060903 -2.7342725 0.3345541 0.74425787 0.0120683145 -1.4201934
0.8237117 0.54433066 0.17427143 0.16413206 -0.5221677 -0.53706867 0.4331509 0.3142294
0.5661706 -0.24397556 -0.30559596 -1.0065875 -0.19219215 -0.2222999 0.116806805 -0.21972153

sequential/dense_2/MatMul f4 [4, 10]
00000000: ad77 15c0 5d11 e5bf c772 3ec0 70d9 d43f
00000010: 5bcc 2f40 debb 1540 32e3 3f3f fa89 8dbf
00000020: 84e8 38c0 022c cfbf 90d4 04c0 44d4 963f
00000030: 0857 8e3c 9cff 54bf 655c a7bf bd28 7ebf
00000040: 3996 09c0 4aae fb3c 165d 183f 4d48 833f
00000050: 6871 903f c0e0 d6be e5e9 623f 01b3 acbf
00000060: ceb9 b3bf ba14 d2bf ccd8 5b3f 42d2 56be
00000070: aece ac3e 78a7 653f df18 f53d 05e2 ed3e
00000080: bbbe 943f 33ed debb ba7b 3abf c5bd 7bbf
00000090: 839c acbf dae1 a33f 965f af3d 0381 e5bf
-2.3354294 -1.7895924 -2.9757555 1.6628857 2.7468479 2.3395915 0.7495605 -1.1057732
-2.8891916 -1.6185305 -2.0754738 1.1783528 0.017375484 -0.8320253 -1.3075072 -0.9928091
-2.1497939 0.030722756 0.5951704 1.025644 1.1284609 -0.41968346 0.88638145 -1.3492128
-1.4041078 -1.6412575 0.8587768 -0.20978644 0.33751434 0.8970866 0.119676344 0.46461502
1.1620706 -0.0068031787 -0.7284504 -0.9833644 -1.3485264 1.28033 0.085631534 -1.7929996
