graduation_project/model/keypoint_classifier/keypoint_classifier.tflite (tflite, 18784 bytes, 6 tensors)

dense_2/bias f4 [35]
0.111577846 0.3258104 0.21505788 0.027337732 -0.23733665 -0.16844639 -0.12759247 -0.037249245
-0.15847604 0.10689303 -0.13896984 0.0885405 -0.10980744 0.012548213 0.15353516 0.111358926
0.08258878 0.050721854 -0.0888358 0.017159533 -0.17349477 0.060537215 0.12536468 0.21229827
0.0015307763 -0.10400439 -0.22528876 -0.035873137 0.008359047 -0.029736388 0.1394172 -0.0055294726
-0.09318353 0.000118353026 -0.07133004
00000000: ed82 e43d 9fd0 a63e 2238 5c3e 61f3 df3c
00000010: 6108 73be 367d 2cbe 9aa7 02be aa92 18bd
00000020: 8b47 22be bcea da3d 1c4e 0ebe b954 b53d
00000030: b9e2 e0bd 0597 4d3c 5238 1d3e 2610 e43d
00000040: 4e24 a93d b8c1 4f3d 8bef b5bd 2692 8c3c
00000050: 9da8 31be dff5 773d 995f 003e b864 593e
00000060: 54a4 c83a 4100 d5bd 19b2 66be b6ef 12bd
00000070: 62f4 083c ba99 f3bc 62c3 0e3e 9430 b5bb
00000080: 02d7 bebd 4c34 f838 7c15 92bd

dense_1/bias f4 [64]
-0.04481893 0.29997805 -0.22329126 0.12519768 0.2247594 -0.040218253 0.22847068 0.08900072
-0.2639549 0.17995542 0.24940255 0.117504016 0.20043853 0.15676776 0.10954749 0.15639642
-0.022398492 0.10409208 0.16224115 -0.046856992 -0.062445182 0.10273257 0.26038352 0.24860168
0.20633999 0.21827972 -0.019970484 0.056878656 -0.1737738 0.29321757 -0.26090544 0.030239072
0.06398357 -0.19956714 0.19917196 -0.13152155 0.25684118 0.085468695 -0.04095006 -0.23858099
0.09426475 -0.28889662 -0.19001146 -0.041165035 -0.229726 0.13538347 0.1430844 0.004639981
-0.01657997 0.5315403 0.13008288 -0.09746887 0.50216746 0.21709211 0.3657088 0.39089593
-0.18166383 0.101666115 0.31273934 0.036389116 0.014106421 0.08418337 0.063456975 0.17050643
00000000: 0e94 37bd b996 993e 77a6 64be d233 003e
00000010: 5427 663e e5bb 24bd 38f4 693e 0246 b63d
00000020: 1925 87be 3c46 383e 6263 7f3e f2a5 f03d
00000030: c23f 4d3e ba87 203e 6f5a e03d 6226 203e
00000040: 0b7d b7bc 3a2e d53d 8b22 263e 1eed 3fbd
00000050: 85c6 7fbd 7465 d23d fd50 853e 7091 7e3e
00000060: ca4a 533e b884 5f3e 2499 a3bc 98f9 683d
00000070: c2f1 31be 9d20 963e 6695 85be eeb7 f73c
00000080: d109 833d 545b 4cbe bcf3 4b3e 96ad 06be
00000090: b080 833e 360a af3d 40bb 27bd 934e 74be
000000a0: e10d c13d 42ea 93be 5d92 42be ab9c 28bd
000000b0: 4b3d 6bbe f7a1 0a3e b884 123e fb0a 983b
000000c0: b8d2 87bc 0613 083f 7234 053e c29d c7bd
000000d0: 0c8e 003f 654d 5e3e 2f3e bb3e 8323 c83e
000000e0: 1506 3abe 5336 d03d 5f1f a03e c10c 153d
000000f0: 9e1e 673c 5568 ac3d bbf5 813d 3d99 2e3e

dense/bias f4 [128]
-0.12259882 -0.21196803 -0.0984664 0.020590344 -0.040698968 -0.040692534 0.04996616 -0.04076209
-0.24408354 0.03375757 -0.24454182 -0.14022845 -0.09046638 0.027515963 0.1336233 0.08361652
-0.18839929 0.019562285 -0.002930424 -0.26695412 -0.3762284 -0.033533197 0.045475706 0.024714233
0.15155087 -0.3035326 -0.10291335 0.18000202 0.052586254 -0.28054342 -0.03971551 0.118193455
-0.043040372 -0.13461018 -0.18270184 -0.007006822 0.16175489 0.050188508 -0.038242653 -0.21708219
-0.13252458 0.062754974 -0.23981297 -0.17189454 -0.024416389 0.030855678 -0.007004382 0.094284594
-0.04887763 0.051949643 0.018796794 -0.15537858 -0.056712653 0.25645584 -0.072680175 -0.05959459
-0.07288056 -0.052780632 -0.18112877 0.053419776 0.021793496 -0.11818428 -0.18127562 -0.122044325
0.009016188 -0.07194542 0.047923423 -0.19878195 -0.033740245 -0.21053813 -0.05787114 -0.31771544
-0.032853626 -0.11451403 -0.03863818 -0.047826935 -0.008909207 -0.086619504 0.048943534 0.015534293
0.054375388 0.08889273 -0.06339771 -0.044452168 0.0152749885 0.02326923 0.06995914 -0.15294276
0.086393364 -0.42559576 0.06528676 -0.21081963 -0.046416298 0.14579828 0.20115803 -0.006948295
-0.40373036 0.038085315 -0.046615206 -0.12842394 0.17690763 -0.038870566 -0.124519385 -0.08579145
-0.10191656 0.10156707 -0.08284794 0.017849114 0.13696134 -0.21153414 -0.15124093 -0.025952037
0.047802046 -0.07746614 -0.24525732 0.122960456 -0.07033282 0.06722913 0.17456181 0.17709617
-0.16947205 0.1966454 0.0069679427 -0.1324972 0.0154383965 0.0037822297 -0.22779405 -0.049816426
00000000: 1715 fbbd 260e 59be c0a8 c9bd 15ad a83c
00000010: f6b3 26bd 37ad 26bd 51a9 4c3d 26f6 26bd
00000020: 09f1 79be 6145 0a3d 2c69 7abe 0c98 0fbe
00000030: 7046 b9bd 2869 e13c 8cd4 083e 233f ab3d
00000040: beeb 40be 1641 a03c 5b0c 40bb 36ae 88be
00000050: 02a1 c0be 1b5a 09bd bc44 3a3d 8175 ca3c
00000060: 2730 1b3e a068 9bbe 3cc4 d2bd 7352 383e
00000070: af64 573d 63a3 8fbe bbac 22bd 690f f23d
00000080: 1a4b 30bd 40d7 09be 3116 3bbe 7c99 e5bb
00000090: 13a3 253e 7792 4d3d 54a4 1cbd cb4a 5ebe
000000a0: 86b4 07be ae85 803d 8891 75be 1f05 30be
000000b0: e104 c8bc 0cc5 fc3c 0485 e5bb 4818 c13d
000000c0: e933 48bd 26c9 543d bcfb 993c 901b 1fbe
000000d0: 874b 68bd 2e4e 833e 58d9 94bd 7519 74bd
000000e0: 6742 95bd 8130 58bd d279 39be b2ce 5a3d
000000f0: 4688 b23c 9a0a f2bd 51a0 39be 60f2 f9bd
00000100: a2b8 133c 1f58 93bd 5a4b 443d 7f8d 4bbe
00000110: 3633 0abd 4f97 57be 4a0a 6dbd 99ab a2be
00000120: 8691 06bd 5586 eabd 1143 1ebd 2de6 43bd
00000130: ecf7 11bc 9165 b1bd 0479 483d 8c83 7e3c
00000140: bab8 5e3d 640d b63d a9d6 81bd 7a13 36bd
00000150: f243 7a3c 1d9f be3c bd46 8f3d 079d 1cbe
00000160: 01ef b03d b0e7 d9be 11b5 853d 1ae1 57be
00000170: 041f 3ebd 254c 153e 5ffc 4d3e 86ae e3bb
00000180: bfb5 cebe 59ff 1b3d 96ef 3ebd 9181 03be
00000190: 4627 353e be36 1fbd 0504 ffbd 6eb3 afbd
000001a0: a1b9 d0bd 6502 d03d 2eac a9bd 4e38 923c
000001b0: 983f 0c3e 689c 58be e7de 1abe 5e99 d4bc
000001c0: 14cc 433d 91a6 9ebd bc24 7bbe b1d2 fb3d
000001d0: a70a 90bd 6daf 893d 55c0 323e b358 353e
000001e0: 158a 2dbe 695d 493e 5753 e43b 59ad 07be
000001f0: 54f1 7c3c 49df 773b d842 69be 4f0c 4cbd

sequential/dense/MatMul i1 [128, 42] scale=0.008724906 zero_point=0
0.043624528 0.1570483 -0.34027132 0.14832339 -0.034899622 0.069799244 -0.29664677 0.13959849
0.087249056 0.5845687 -0.19194792 -0.28792188 -0.008724906 -0.24429736 -0.13959849 0.052349433
0.13087359 0.28792188 -0.11342377 -0.16577321 -0.017449811 -0.09597396 -0.09597396 -0.043624528
0.3140966 0.09597396 0.22684754 0.10469887 -0.13087359 -0.27919698 -0.20939773 -0.14832339
0.008724906 -0.33154643 -0.09597396 -0.09597396 0.069799244 0.008724906 -0.35772112 -0.07852415
-0.38389584 -0.21812263 0.13959849 -0.09597396 0.026174717 0.026174717 -0.09597396 -0.27919698
0.008724906 -0.41007057 0.21812263 -0.46242 -0.13959849 0.27919698 0.19194792 0.24429736
-0.043624528 0.26174718 0.13959849 0.10469887 -0.20939773 -0.026174717 -0.06107434 -0.06107434
-0.28792188 0.008724906 -0.3053717 0.27919698 -0.06107434 0.087249056 0.26174718 -0.19194792
0.026174717 -0.18322301 -0.07852415 0.19194792 -0.07852415 0.23557246 -0.017449811 -0.35772112
0.008724906 -0.43624526 -0.017449811 -0.35772112 0.14832339 0.11342377 -0.07852415 -0.10469887
-0.24429736 -0.19194792 -0.57584375 0.087249056 -0.88121545 0.36644602 0.10469887 0.21812263
0.069799244 0.20067284 -0.087249056 0.052349433 -0.19194792 -0.10469887 0.13087359 0.14832339
0.4536951 0.052349433 -0.026174717 0.06107434 -0.24429736 -0.069799244 0.12214868 -0.017449811
-0.16577321 -0.17449811 -0.18322301 0.14832339 0.14832339 -0.07852415 0.13087359 -0.087249056
0.07852415 -0.25302225 -0.034899622 -0.087249056 0.06107434 -0.09597396 -0.18322301 0.18322301
-0.052349433 -0.09597396 -0.26174718 0.069799244 -0.35772112 0.37517095 0.069799244 0.40134567
-0.20067284 0.09597396 -0.069799244 0.1570483 -0.27919698 -0.26174718 -0.29664677 -0.3140966
-0.13959849 0.06107434 0.07852415 0.0 0.026174717 0.034899622 0.3228215 0.026174717
-0.29664677 0.25302225 -0.43624526 -0.087249056 -0.46242 -0.20939773 -0.3140966 -0.4536951
-0.3140966 0.3053717 -0.28792188 0.25302225 -0.3053717 -0.09597396 -0.46242 -0.24429736
-0.017449811 -0.11342377 0.18322301 -0.034899622 -0.017449811 0.23557246 -0.4536951 -0.19194792
-0.80269134 -0.034899622 0.27919698 0.20067284 0.18322301 -0.008724906 0.3140966 0.26174718
0.16577321 0.27047208 -0.008724906 0.13087359 0.37517095 -0.008724906 0.10469887 -0.034899622
0.10469887 -0.017449811 -0.13087359 -0.008724906 0.35772112 0.06107434 0.28792188 -0.087249056
0.37517095 -0.034899622 -0.06107434 0.13087359 0.36644602 -0.1570483 0.43624526 -0.07852415
0.68054265 -0.4449702 0.008724906 -0.14832339 0.4536951 0.10469887 0.33154643 0.07852415
0.51476943 0.09597396 0.7852415 -0.087249056 -0.14832339 0.39262074 -0.22684754 0.20939773
-0.38389584 0.06107434 -0.36644602 -0.3140966 -0.23557246 0.043624528 -0.5060445 0.35772112
0.13087359 -0.09597396 0.41879547 -0.38389584 -0.24429736 0.16577321 -0.21812263 0.23557246
0.13087359 -0.18322301 -0.008724906 0.14832339 -0.39262074 -0.13087359 -0.23557246 0.043624528
0.008724906 -0.11342377 -0.12214868 0.0 -0.07852415 -0.087249056 -0.25302225 0.087249056
00000000: 0512 d911 fc08 de10 0a43 eadf ffe4 f006
00000010: 0f21 f3ed fef5 f5fb 240b 1a0c f1e0 e8ef
00000020: 01da f5f5 0801 d7f7 d4e7 10f5 0303 f5e0
00000030: 01d1 19cb f020 161c fb1e 100c e8fd f9f9
00000040: df01 dd20 f90a 1eea 03eb f716 f71b fed7
00000050: 01ce fed7 110d f7f4 e4ea be0a 9b2a 0c19
00000060: 0817 f606 eaf4 0f11 3406 fd07 e4f8 0efe
00000070: edec eb11 11f7 0ff6 09e3 fcf6 07f5 eb15
00000080: faf5 e208 d72b 082e e90b f812 e0e2 dedc
00000090: f007 0900 0304 2503 de1d cef6 cbe8 dccc
000000a0: dc23 df1d ddf5 cbe4 fef3 15fc fe1b ccea
000000b0: a4fc 2017 15ff 241e 131f ff0f 2bff 0cfc
000000c0: 0cfe f1ff 2907 21f6 2bfc f90f 2aee 32f7
000000d0: 4ecd 01ef 340c 2609 3b0b 5af6 ef2d e618
000000e0: d407 d6dc e505 c629 0ff5 30d4 e413 e71b
000000f0: 0feb ff11 d3f1 e505 01f3 f200 f7f6 e30a

sequential/dense_1/MatMul i1 [64, 128] scale=0.011055287 zero_point=0
0.022110574 -0.45326677 0.06633172 -0.044221148 0.022110574 -0.46432206 0.89547825 0.055276435
0.2542716 0.011055287 0.38693506 0.2653269 0.22110574 0.12160815 -0.044221148 0.3316586
0.23216103 0.1658293 0.28743747 -0.38693506 0.21005045 0.27638218 -0.13266344 0.36482447
0.088442296 0.15477401 0.2542716 0.06633172 0.3206033 0.055276435 -0.011055287 0.088442296
-0.11055287 -0.21005045 0.11055287 0.2432163 -0.11055287 0.2542716 -0.22110574 0.3427139
-0.022110574 0.38693506 0.11055287 -0.37587976 0.044221148 -0.011055287 -0.022110574 -0.044221148
-0.23216103 -0.1658293 0.30954802 -0.28743747 -0.055276435 -0.23216103 -0.35376918 0.03316586
0.09949759 -0.03316586 0.03316586 0.19899517 0.011055287 0.077387005 -0.3316586 0.044221148
-0.2432163 0.5969855 0.19899517 0.14371873 -0.39799035 0.044221148 0.72964895 -0.14371873
0.14371873 0.011055287 0.15477401 -0.29849276 0.03316586 0.4311562 0.29849276 -0.18793988
-0.088442296 0.06633172 0.5306538 0.27638218 0.03316586 -0.21005045 -0.2432163 0.18793988
0.6080408 0.19899517 -0.4311562 -0.1658293 0.35376918 0.2653269 -0.088442296 -0.088442296
0.21005045 0.5306538 0.3206033 0.22110574 -0.3316586 0.18793988 0.3427139 0.37587976
0.022110574 -0.14371873 0.13266344 0.36482447 0.36482447 0.088442296 0.11055287 0.14371873
0.29849276 0.44221148 0.09949759 0.96181 0.09949759 0.06633172 0.09949759 0.19899517
0.19899517 -0.022110574 -0.19899517 0.055276435 0.055276435 0.72964895 0.5306538 -0.14371873
0.15477401 0.18793988 -0.11055287 0.3427139 -0.044221148 -0.37587976 -0.29849276 -0.022110574
0.39799035 -0.2542716 -0.1658293 0.4864326 -0.27638218 -0.044221148 0.12160815 -0.39799035
0.22110574 -0.2432163 0.06633172 0.022110574 0.3427139 -0.13266344 -0.70753837 -0.6964831
-0.09949759 0.39799035 -0.19899517 0.36482447 -0.4090456 0.022110574 0.044221148 -0.8070359
0.044221148 0.022110574 0.36482447 -0.23216103 -0.077387005 -0.57487494 0.044221148 0.30954802
0.088442296 -0.3316586 0.2542716 0.3206033 0.14371873 -0.06633172 -0.03316586 -0.13266344
-0.077387005 -0.12160815 0.2542716 -0.011055287 0.055276435 0.011055287 -0.18793988 -0.1658293
0.077387005 0.17688459 0.2432163 0.12160815 -0.18793988 0.22110574 -0.022110574 0.12160815
-0.044221148 -0.055276435 0.03316586 0.27638218 -0.12160815 0.5859302 0.17688459 0.22110574
-0.28743747 0.3427139 0.44221148 0.12160815 -0.3316586 -0.37587976 -0.70753837 0.055276435
-0.044221148 -0.055276435 0.022110574 -0.39799035 -0.011055287 -0.17688459 -0.23216103 0.18793988
0.09949759 0.11055287 -0.18793988 0.11055287 0.2653269 -0.27638218 0.022110574 0.011055287
0.12160815 0.011055287 0.21005045 0.09949759 -0.4201009 -0.2432163 0.28743747 0.044221148
-0.06633172 -0.12160815 -0.13266344 -0.3206033 0.12160815 0.088442296 -0.19899517 0.077387005
0.011055287 0.2653269 0.37587976 -0.2542716 0.17688459 -0.38693506 0.088442296 0.11055287
0.2432163 -0.011055287 -0.14371873 0.3316586 0.06633172 -0.46432206 0.36482447 -0.088442296
00000000: 02d7 06fc 02d6 5105 1701 2318 140b fc1e
00000010: 150f 1add 1319 f421 080e 1706 1d05 ff08
00000020: f6ed 0a16 f617 ec1f fe23 0ade 04ff fefc
00000030: ebf1 1ce6 fbeb e003 09fd 0312 0107 e204
00000040: ea36 120d dc04 42f3 0d01 0ee5 0327 1bef
00000050: f806 3019 03ed ea11 3712 d9f1 2018 f8f8
00000060: 1330 1d14 e211 1f22 02f3 0c21 2108 0a0d
00000070: 1b28 0957 0906 0912 12fe ee05 0542 30f3
00000080: 0e11 f61f fcde e5fe 24e9 f12c e7fc 0bdc
00000090: 14ea 0602 1ff4 c0c1 f724 ee21 db02 04b7
000000a0: 0402 21eb f9cc 041c 08e2 171d 0dfa fdf4
000000b0: f9f5 17ff 0501 eff1 0710 160b ef14 fe0b
000000c0: fcfb 0319 f535 1014 e61f 280b e2de c005
000000d0: fcfb 02dc fff0 eb11 090a ef0a 18e7 0201
000000e0: 0b01 1309 daea 1a04 faf5 f4e3 0b08 ee07
000000f0: 0118 22e9 10dd 080a 16ff f31e 06d6 21f8

sequential/dense_2/MatMul i1 [35, 64] scale=0.010379146 zero_point=0
-0.39440754 0.28023693 0.37364924 0.23872036 -0.44630328 0.42554498 -0.10379146 0.4774407
-0.1349289 0.12454975 -0.92374396 -0.19720377 -0.1349289 0.3425118 -0.40478668 -0.62274873
-0.031137437 -0.19720377 -0.10379146 -0.32175353 0.41516584 -0.18682462 0.05189573 0.16606633
-0.041516583 -0.031137437 -0.35289097 0.072654024 -0.56047386 0.2283412 -0.062274873 -0.16606633
-0.2906161 0.23872036 0.031137437 0.28023693 -0.6538862 -0.14530805 -0.3632701 -0.041516583
-0.2698578 -0.25947866 -0.6123696 -0.31137437 -0.46706155 -0.44630328 -0.40478668 0.1349289
-0.5085781 -0.6954028 -0.3840284 -0.3632701 0.37364924 0.32175353 -0.16606633 0.05189573
-0.18682462 0.2698578 0.15568718 -0.020758292 -0.5189573 -0.15568718 -0.12454975 -0.19720377
0.2283412 0.20758292 -0.32175353 -0.7472985 -0.35289097 -0.5189573 0.31137437 0.19720377
-0.4774407 0.12454975 0.072654024 -0.2283412 -0.010379146 0.2283412 0.37364924 -0.18682462
-0.3425118 0.42554498 -0.6538862 -0.12454975 -1.0794312 0.1141706 0.37364924 0.14530805
-0.44630328 0.12454975 0.041516583 0.14530805 -0.996398 0.2283412 -0.4774407 -0.32175353
-0.20758292 -1.1624644 0.031137437 -0.9445023 -0.10379146 0.19720377 -0.020758292 -0.5397156
-0.020758292 -1.3181515 -0.3425118 -0.7991942 -0.98601884 -0.7991942 0.041516583 -0.30099523
-0.30099523 0.46706155 0.4566824 -1.0482937 0.20758292 -0.1349289 0.5812322 0.16606633
-0.05189573 0.12454975 0.25947866 0.2490995 0.35289097 -0.12454975 0.42554498 -0.5189573
0.31137437 0.39440754 -0.21796206 -0.09341231 -0.2698578 -0.39440754 0.020758292 0.41516584
-0.37364924 0.23872036 0.072654024 -0.18682462 0.32175353 0.09341231 0.08303317 0.3840284
-0.9756397 -0.6538862 -0.6123696 -0.041516583 -0.041516583 -0.52933645 0.16606633 0.33213267
-0.4359241 0.010379146 0.28023693 0.041516583 -0.31137437 0.31137437 -0.35289097 -0.41516584
-0.09341231 -0.5500947 -0.92374396 0.09341231 0.19720377 -0.062274873 -0.39440754 -1.2662557
0.09341231 -0.73691934 -0.14530805 -0.33213267 -0.6850236 0.2698578 0.15568718 -0.5916113
-0.8407108 0.3840284 -0.2906161 -0.1141706 -0.3425118 0.2490995 0.17644548 0.20758292
-1.2247392 -0.7991942 0.1141706 -0.1349289 -0.62274873 -0.9445023 -0.14530805 0.35289097
0.18682462 0.20758292 -0.17644548 -0.28023693 -0.7161611 -0.20758292 -0.48781985 -0.2283412
-0.6123696 -0.16606633 0.2906161 0.16606633 0.41516584 -0.09341231 0.12454975 0.33213267
-0.7991942 -0.70578194 -0.05189573 0.0 -0.23872036 -0.2283412 -0.8303317 -0.18682462
-0.70578194 0.031137437 0.35289097 0.21796206 0.4359241 0.3840284 -0.15568718 -0.08303317
-0.010379146 -0.4359241 -0.4359241 0.4566824 0.2698578 0.10379146 -0.40478668 -0.96526057
0.10379146 -0.4566824 -0.17644548 -0.15568718 -0.08303317 0.20758292 0.3632701 -0.17644548
-0.31137437 0.1349289 -0.23872036 0.0 -0.62274873 -0.08303317 -0.28023693 0.17644548
-0.56047386 -0.28023693 -0.25947866 -0.570853 -0.15568718 -0.7576777 -0.09341231 0.3425118
00000000: da1b 2417 d529 f62e f30c a7ed f321 d9c4
00000010: fded f6e1 28ee 0510 fcfd de07 ca16 faf0
00000020: e417 031b c1f2 ddfc e6e7 c5e2 d3d5 d90d
00000030: cfbd dbdd 241f f005 ee1a 0ffe cef1 f4ed
00000040: 1614 e1b8 dece 1e13 d20c 07ea ff16 24ee
00000050: df29 c1f4 980b 240e d50c 040e a016 d2e1
00000060: ec90 03a5 f613 fecc fe81 dfb3 a1b3 04e3
00000070: e32d 2c9b 14f3 3810 fb0c 1918 22f4 29ce
00000080: 1e26 ebf7 e6da 0228 dc17 07ee 1f09 0825
00000090: a2c1 c5fc fccd 1020 d601 1b04 e21e ded8
000000a0: f7cb a709 13fa da86 09b9 f2e0 be1a 0fc7
000000b0: af25 e4f5 df18 1114 8ab3 0bf3 c4a5 f222
000000c0: 1214 efe5 bbec d1ea c5f0 1c10 28f7 0c20
000000d0: b3bc fb00 e9ea b0ee bc03 2215 2a25 f1f8
000000e0: ffd6 d62c 1a0a d9a3 0ad4 eff1 f814 23ef
000000f0: e20d e900 c4f8 e511 cae5 e7c9 f1b7 f721
